First configuration

┏━━━━━━━━━━━━━━━━━━━━━━━━━━━━━━┳━━━━━━━━━━━━━━━━━━━━━━┳━━━━━━━━━━━━━┓
┃ Layer (type)                    ┃ Output Shape           ┃       Param # ┃
┡━━━━━━━━━━━━━━━━━━━━━━━━━━━━━━╇━━━━━━━━━━━━━━━━━━━━━━╇━━━━━━━━━━━━━┩
│ conv1d_6 (Conv1D)               │ (None, 1000, 64)       │           256 │
├─────────────────────────────────┼────────────────────────┼───────────────┤
│ batch_normalization_6           │ (None, 1000, 64)       │           256 │
│ (BatchNormalization)            │                        │               │
├─────────────────────────────────┼────────────────────────┼───────────────┤
│ max_pooling1d_6 (MaxPooling1D)  │ (None, 500, 64)        │             0 │
├─────────────────────────────────┼────────────────────────┼───────────────┤
│ dropout_12 (Dropout)            │ (None, 500, 64)        │             0 │
├─────────────────────────────────┼────────────────────────┼───────────────┤
│ conv1d_7 (Conv1D)               │ (None, 500, 128)       │        24,704 │
├─────────────────────────────────┼────────────────────────┼───────────────┤
│ batch_normalization_7           │ (None, 500, 128)       │           512 │
│ (BatchNormalization)            │                        │               │
├─────────────────────────────────┼────────────────────────┼───────────────┤
│ max_pooling1d_7 (MaxPooling1D)  │ (None, 250, 128)       │             0 │
├─────────────────────────────────┼────────────────────────┼───────────────┤
│ dropout_13 (Dropout)            │ (None, 250, 128)       │             0 │
├─────────────────────────────────┼────────────────────────┼───────────────┤
│ conv1d_8 (Conv1D)               │ (None, 250, 256)       │        98,560 │
├─────────────────────────────────┼────────────────────────┼───────────────┤
│ batch_normalization_8           │ (None, 250, 256)       │         1,024 │
│ (BatchNormalization)            │                        │               │
├─────────────────────────────────┼────────────────────────┼───────────────┤
│ global_average_pooling1d        │ (None, 256)            │             0 │
│ (GlobalAveragePooling1D)        │                        │               │
├─────────────────────────────────┼────────────────────────┼───────────────┤
│ dropout_14 (Dropout)            │ (None, 256)            │             0 │
├─────────────────────────────────┼────────────────────────┼───────────────┤
│ dense_8 (Dense)                 │ (None, 512)            │       131,584 │
├─────────────────────────────────┼────────────────────────┼───────────────┤
│ dropout_15 (Dropout)            │ (None, 512)            │             0 │
├─────────────────────────────────┼────────────────────────┼───────────────┤
│ dense_9 (Dense)                 │ (None, 256)            │       131,328 │
├─────────────────────────────────┼────────────────────────┼───────────────┤
│ dropout_16 (Dropout)            │ (None, 256)            │             0 │
├─────────────────────────────────┼────────────────────────┼───────────────┤
│ dense_10 (Dense)                │ (None, 128)            │        32,896 │
├─────────────────────────────────┼────────────────────────┼───────────────┤
│ dropout_17 (Dropout)            │ (None, 128)            │             0 │
├─────────────────────────────────┼────────────────────────┼───────────────┤
│ dense_11 (Dense)                │ (None, 1)              │           129 │
└─────────────────────────────────┴────────────────────────┴───────────────┘ 

======================================================================
THRESHOLD OPTIMIZATION & EVALUATION
======================================================================

Optimal threshold: 0.6933 (default=0.5)
  At this threshold: TPR=0.9574, FPR=0.2105

Results:
  AUC-ROC: 0.9006
  Accuracy (default threshold=0.5): 0.5503 (55.03%)
…
weighted avg     0.8841    0.8730    0.8722       189


Prediction distribution (optimal threshold):
  Predicted 0: 79
  Predicted 1: 110
True distribution:
  True 0: 95
  True 1: 94
  
  
  confusion matrix
  
  			Predicted	
			Non-Planet	Planet
	Non-Planet	75 (39.7%)	20(10.6%)
True
	Planet		4 (2.1%)	90 (47.6%)
	
	
	
	
	
	
Configuration 2

┏━━━━━━━━━━━━━━━━━━━━━━━━━━━━━━┳━━━━━━━━━━━━━━━━━━━━━━┳━━━━━━━━━━━━━━━┓
┃ Layer (type)                    ┃ Output Shape           ┃       Param # ┃
┡━━━━━━━━━━━━━━━━━━━━━━━━━━━━━━╇━━━━━━━━━━━━━━━━━━━━━━╇━━━━━━━━━━━━━━━┩
│ conv1d_9 (Conv1D)               │ (None, 1000, 64)       │           320 │
├─────────────────────────────────┼────────────────────────┼───────────────┤
│ batch_normalization_9           │ (None, 1000, 64)       │           256 │
│ (BatchNormalization)            │                        │               │
├─────────────────────────────────┼────────────────────────┼───────────────┤
│ max_pooling1d_8 (MaxPooling1D)  │ (None, 500, 64)        │             0 │
├─────────────────────────────────┼────────────────────────┼───────────────┤
│ dropout_18 (Dropout)            │ (None, 500, 64)        │             0 │
├─────────────────────────────────┼────────────────────────┼───────────────┤
│ conv1d_10 (Conv1D)              │ (None, 500, 128)       │        32,896 │
├─────────────────────────────────┼────────────────────────┼───────────────┤
│ batch_normalization_10          │ (None, 500, 128)       │           512 │
│ (BatchNormalization)            │                        │               │
├─────────────────────────────────┼────────────────────────┼───────────────┤
│ max_pooling1d_9 (MaxPooling1D)  │ (None, 250, 128)       │             0 │
├─────────────────────────────────┼────────────────────────┼───────────────┤
│ dropout_19 (Dropout)            │ (None, 250, 128)       │             0 │
├─────────────────────────────────┼────────────────────────┼───────────────┤
│ conv1d_11 (Conv1D)              │ (None, 250, 256)       │       131,328 │
├─────────────────────────────────┼────────────────────────┼───────────────┤
│ batch_normalization_11          │ (None, 250, 256)       │         1,024 │
│ (BatchNormalization)            │                        │               │
├─────────────────────────────────┼────────────────────────┼───────────────┤
│ max_pooling1d_10 (MaxPooling1D) │ (None, 125, 256)       │             0 │
├─────────────────────────────────┼────────────────────────┼───────────────┤
│ dropout_20 (Dropout)            │ (None, 125, 256)       │             0 │
├─────────────────────────────────┼────────────────────────┼───────────────┤
│ conv1d_12 (Conv1D)              │ (None, 125, 512)       │       524,800 │
├─────────────────────────────────┼────────────────────────┼───────────────┤
│ batch_normalization_12          │ (None, 125, 512)       │         2,048 │
│ (BatchNormalization)            │                        │               │
├─────────────────────────────────┼────────────────────────┼───────────────┤
│ global_average_pooling1d_1      │ (None, 512)            │             0 │
│ (GlobalAveragePooling1D)        │                        │               │
├─────────────────────────────────┼────────────────────────┼───────────────┤
│ dropout_21 (Dropout)            │ (None, 512)            │             0 │
├─────────────────────────────────┼────────────────────────┼───────────────┤
│ dense_12 (Dense)                │ (None, 512)            │       262,656 │
├─────────────────────────────────┼────────────────────────┼───────────────┤
│ dropout_22 (Dropout)            │ (None, 512)            │             0 │
├─────────────────────────────────┼────────────────────────┼───────────────┤
│ dense_13 (Dense)                │ (None, 256)            │       131,328 │
├─────────────────────────────────┼────────────────────────┼───────────────┤
│ dropout_23 (Dropout)            │ (None, 256)            │             0 │
├─────────────────────────────────┼────────────────────────┼───────────────┤
│ dense_14 (Dense)                │ (None, 128)            │        32,896 │
├─────────────────────────────────┼────────────────────────┼───────────────┤
│ dropout_24 (Dropout)            │ (None, 128)            │             0 │
├─────────────────────────────────┼────────────────────────┼───────────────┤
│ dense_15 (Dense)                │ (None, 1)              │           129 │
└─────────────────────────────────┴────────────────────────┴───────────────┘


Optimal threshold: 0.4151 (default=0.5)
  At this threshold: TPR=0.8617, FPR=0.1474

Results:
  AUC-ROC: 0.8992
  Accuracy (default threshold=0.5): 0.5979 (59.79%)
  Accuracy (optimal threshold=0.4151): 0.8571 (85.71%)

With optimal threshold:
              precision    recall  f1-score   support

  Non-Planet     0.8617    0.8526    0.8571        95
…
weighted avg     0.8572    0.8571    0.8571       189


Prediction distribution (optimal threshold):
  Predicted 0: 94
  Predicted 1: 95
True distribution:
  True 0: 95
  True 1: 94
  
  
  confusion matrix
  
  			Predicted	
			Non-Planet	Planet
	Non-Planet	81 (42.9%)	14(7.4%)
True
	Planet		13 (6.9%)	81 (42.9%)  
	
	
	
	
	
	

configuration 3

┏━━━━━━━━━━━━━━━━━━━━━━━━━━━━━━━━━┳━━━━━━━━━━━━━━━━━━━━━━━━┳━━━━━━━━━━━━━━━┓
┃ Layer (type)                    ┃ Output Shape           ┃       Param # ┃
┡━━━━━━━━━━━━━━━━━━━━━━━━━━━━━━━━━╇━━━━━━━━━━━━━━━━━━━━━━━━╇━━━━━━━━━━━━━━━┩
│ conv1d_32 (Conv1D)              │ (None, 1000, 64)       │           320 │
├─────────────────────────────────┼────────────────────────┼───────────────┤
│ batch_normalization_32          │ (None, 1000, 64)       │           256 │
│ (BatchNormalization)            │                        │               │
├─────────────────────────────────┼────────────────────────┼───────────────┤
│ max_pooling1d_21 (MaxPooling1D) │ (None, 500, 64)        │             0 │
├─────────────────────────────────┼────────────────────────┼───────────────┤
│ dropout_56 (Dropout)            │ (None, 500, 64)        │             0 │
├─────────────────────────────────┼────────────────────────┼───────────────┤
│ conv1d_33 (Conv1D)              │ (None, 500, 128)       │        32,896 │
├─────────────────────────────────┼────────────────────────┼───────────────┤
│ batch_normalization_33          │ (None, 500, 128)       │           512 │
│ (BatchNormalization)            │                        │               │
├─────────────────────────────────┼────────────────────────┼───────────────┤
│ max_pooling1d_22 (MaxPooling1D) │ (None, 250, 128)       │             0 │
├─────────────────────────────────┼────────────────────────┼───────────────┤
│ dropout_57 (Dropout)            │ (None, 250, 128)       │             0 │
├─────────────────────────────────┼────────────────────────┼───────────────┤
│ conv1d_34 (Conv1D)              │ (None, 250, 256)       │       131,328 │
├─────────────────────────────────┼────────────────────────┼───────────────┤
│ batch_normalization_34          │ (None, 250, 256)       │         1,024 │
│ (BatchNormalization)            │                        │               │
├─────────────────────────────────┼────────────────────────┼───────────────┤
│ global_average_pooling1d_11     │ (None, 256)            │             0 │
│ (GlobalAveragePooling1D)        │                        │               │
├─────────────────────────────────┼────────────────────────┼───────────────┤
│ dropout_58 (Dropout)            │ (None, 256)            │             0 │
├─────────────────────────────────┼────────────────────────┼───────────────┤
│ dense_33 (Dense)                │ (None, 1024)           │       263,168 │
├─────────────────────────────────┼────────────────────────┼───────────────┤
│ dropout_59 (Dropout)            │ (None, 1024)           │             0 │
├─────────────────────────────────┼────────────────────────┼───────────────┤
│ dense_34 (Dense)                │ (None, 512)            │       524,800 │
├─────────────────────────────────┼────────────────────────┼───────────────┤
│ dropout_60 (Dropout)            │ (None, 512)            │             0 │
├─────────────────────────────────┼────────────────────────┼───────────────┤
│ dense_35 (Dense)                │ (None, 256)            │       131,328 │
├─────────────────────────────────┼────────────────────────┼───────────────┤
│ dropout_61 (Dropout)            │ (None, 256)            │             0 │
├─────────────────────────────────┼────────────────────────┼───────────────┤
│ dense_36 (Dense)                │ (None, 128)            │        32,896 │
├─────────────────────────────────┼────────────────────────┼───────────────┤
│ dropout_62 (Dropout)            │ (None, 128)            │             0 │
├─────────────────────────────────┼────────────────────────┼───────────────┤
│ dense_37 (Dense)                │ (None, 1)              │           129 │
└─────────────────────────────────┴────────────────────────┴───────────────┘

======================================================================
THRESHOLD OPTIMIZATION & EVALUATION
======================================================================

Optimal threshold: 0.5176 (default=0.5)
  At this threshold: TPR=0.9468, FPR=0.1895

Results:
  AUC-ROC: 0.9231
  Accuracy (default threshold=0.5): 0.8413 (84.13%)
…
weighted avg     0.8857    0.8783    0.8778       189


Prediction distribution (optimal threshold):
  Predicted 0: 82
  Predicted 1: 107
True distribution:
  True 0: 95
  True 1: 94
  
  confusion matrix
  
  			Predicted	
			Non-Planet	Planet
	Non-Planet	77 (40.7%)	18(9.5%)
True
	Planet		5 (2.6%)	89 (47.1%) 
	
	
	
	
	
	
	
configuration 4

┏━━━━━━━━━━━━━━━━━━━━━━━━━━━━━━━━━┳━━━━━━━━━━━━━━━━━━━━━━━━┳━━━━━━━━━━━━━━━┓
┃ Layer (type)                    ┃ Output Shape           ┃       Param # ┃
┡━━━━━━━━━━━━━━━━━━━━━━━━━━━━━━━━━╇━━━━━━━━━━━━━━━━━━━━━━━━╇━━━━━━━━━━━━━━━┩
│ conv1d_35 (Conv1D)              │ (None, 1000, 64)       │           320 │
├─────────────────────────────────┼────────────────────────┼───────────────┤
│ batch_normalization_35          │ (None, 1000, 64)       │           256 │
│ (BatchNormalization)            │                        │               │
├─────────────────────────────────┼────────────────────────┼───────────────┤
│ max_pooling1d_23 (MaxPooling1D) │ (None, 500, 64)        │             0 │
├─────────────────────────────────┼────────────────────────┼───────────────┤
│ dropout_63 (Dropout)            │ (None, 500, 64)        │             0 │
├─────────────────────────────────┼────────────────────────┼───────────────┤
│ conv1d_36 (Conv1D)              │ (None, 500, 128)       │        32,896 │
├─────────────────────────────────┼────────────────────────┼───────────────┤
│ batch_normalization_36          │ (None, 500, 128)       │           512 │
│ (BatchNormalization)            │                        │               │
├─────────────────────────────────┼────────────────────────┼───────────────┤
│ max_pooling1d_24 (MaxPooling1D) │ (None, 250, 128)       │             0 │
├─────────────────────────────────┼────────────────────────┼───────────────┤
│ dropout_64 (Dropout)            │ (None, 250, 128)       │             0 │
├─────────────────────────────────┼────────────────────────┼───────────────┤
│ conv1d_37 (Conv1D)              │ (None, 250, 256)       │       131,328 │
├─────────────────────────────────┼────────────────────────┼───────────────┤
│ batch_normalization_37          │ (None, 250, 256)       │         1,024 │
│ (BatchNormalization)            │                        │               │
├─────────────────────────────────┼────────────────────────┼───────────────┤
│ max_pooling1d_25 (MaxPooling1D) │ (None, 125, 256)       │             0 │
├─────────────────────────────────┼────────────────────────┼───────────────┤
│ dropout_65 (Dropout)            │ (None, 125, 256)       │             0 │
├─────────────────────────────────┼────────────────────────┼───────────────┤
│ conv1d_38 (Conv1D)              │ (None, 125, 512)       │       524,800 │
├─────────────────────────────────┼────────────────────────┼───────────────┤
│ batch_normalization_38          │ (None, 125, 512)       │         2,048 │
│ (BatchNormalization)            │                        │               │
├─────────────────────────────────┼────────────────────────┼───────────────┤
│ global_average_pooling1d_12     │ (None, 512)            │             0 │
│ (GlobalAveragePooling1D)        │                        │               │
├─────────────────────────────────┼────────────────────────┼───────────────┤
│ dropout_66 (Dropout)            │ (None, 512)            │             0 │
├─────────────────────────────────┼────────────────────────┼───────────────┤
│ dense_38 (Dense)                │ (None, 1024)           │       525,312 │
├─────────────────────────────────┼────────────────────────┼───────────────┤
│ dropout_67 (Dropout)            │ (None, 1024)           │             0 │
├─────────────────────────────────┼────────────────────────┼───────────────┤
│ dense_39 (Dense)                │ (None, 512)            │       524,800 │
├─────────────────────────────────┼────────────────────────┼───────────────┤
│ dropout_68 (Dropout)            │ (None, 512)            │             0 │
├─────────────────────────────────┼────────────────────────┼───────────────┤
│ dense_40 (Dense)                │ (None, 256)            │       131,328 │
├─────────────────────────────────┼────────────────────────┼───────────────┤
│ dropout_69 (Dropout)            │ (None, 256)            │             0 │
├─────────────────────────────────┼────────────────────────┼───────────────┤
│ dense_41 (Dense)                │ (None, 128)            │        32,896 │
├─────────────────────────────────┼────────────────────────┼───────────────┤
│ dropout_70 (Dropout)            │ (None, 128)            │             0 │
├─────────────────────────────────┼────────────────────────┼───────────────┤
│ dense_42 (Dense)                │ (None, 1)              │           129 │
└─────────────────────────────────┴────────────────────────┴───────────────┘


Optimal threshold: 0.3017 (default=0.5)
  At this threshold: TPR=0.8511, FPR=0.1474

Results:
  AUC-ROC: 0.9111
  Accuracy (default threshold=0.5): 0.5979 (59.79%)
  Accuracy (optimal threshold=0.3017): 0.8519 (85.19%)

With optimal threshold:
              precision    recall  f1-score   support

  Non-Planet     0.8526    0.8526    0.8526        95
…
weighted avg     0.8519    0.8519    0.8519       189


Prediction distribution (optimal threshold):
  Predicted 0: 95
  Predicted 1: 94
True distribution:
  True 0: 95
  True 1: 94
  
  
   confusion matrix
  
  			Predicted	
			Non-Planet	Planet
	Non-Planet	81 (42.9%)	14(7.4%)
True
	Planet		14 (7.4%)	80 (42.3%) 
	
	
	
	
	
	
	
	
configuration 5

┏━━━━━━━━━━━━━━━━━━━━━━━━━━━━━━━━━┳━━━━━━━━━━━━━━━━━━━━━━━━┳━━━━━━━━━━━━━━━┓
┃ Layer (type)                    ┃ Output Shape           ┃       Param # ┃
┡━━━━━━━━━━━━━━━━━━━━━━━━━━━━━━━━━╇━━━━━━━━━━━━━━━━━━━━━━━━╇━━━━━━━━━━━━━━━┩
│ conv1d_39 (Conv1D)              │ (None, 1000, 64)       │           256 │
├─────────────────────────────────┼────────────────────────┼───────────────┤
│ batch_normalization_39          │ (None, 1000, 64)       │           256 │
│ (BatchNormalization)            │                        │               │
├─────────────────────────────────┼────────────────────────┼───────────────┤
│ max_pooling1d_26 (MaxPooling1D) │ (None, 500, 64)        │             0 │
├─────────────────────────────────┼────────────────────────┼───────────────┤
│ dropout_71 (Dropout)            │ (None, 500, 64)        │             0 │
├─────────────────────────────────┼────────────────────────┼───────────────┤
│ conv1d_40 (Conv1D)              │ (None, 500, 128)       │        24,704 │
├─────────────────────────────────┼────────────────────────┼───────────────┤
│ batch_normalization_40          │ (None, 500, 128)       │           512 │
│ (BatchNormalization)            │                        │               │
├─────────────────────────────────┼────────────────────────┼───────────────┤
│ max_pooling1d_27 (MaxPooling1D) │ (None, 250, 128)       │             0 │
├─────────────────────────────────┼────────────────────────┼───────────────┤
│ dropout_72 (Dropout)            │ (None, 250, 128)       │             0 │
├─────────────────────────────────┼────────────────────────┼───────────────┤
│ conv1d_41 (Conv1D)              │ (None, 250, 256)       │        98,560 │
├─────────────────────────────────┼────────────────────────┼───────────────┤
│ batch_normalization_41          │ (None, 250, 256)       │         1,024 │
│ (BatchNormalization)            │                        │               │
├─────────────────────────────────┼────────────────────────┼───────────────┤
│ max_pooling1d_28 (MaxPooling1D) │ (None, 125, 256)       │             0 │
├─────────────────────────────────┼────────────────────────┼───────────────┤
│ dropout_73 (Dropout)            │ (None, 125, 256)       │             0 │
├─────────────────────────────────┼────────────────────────┼───────────────┤
│ conv1d_42 (Conv1D)              │ (None, 125, 512)       │       393,728 │
├─────────────────────────────────┼────────────────────────┼───────────────┤
│ batch_normalization_42          │ (None, 125, 512)       │         2,048 │
│ (BatchNormalization)            │                        │               │
├─────────────────────────────────┼────────────────────────┼───────────────┤
│ global_average_pooling1d_13     │ (None, 512)            │             0 │
│ (GlobalAveragePooling1D)        │                        │               │
├─────────────────────────────────┼────────────────────────┼───────────────┤
│ dropout_74 (Dropout)            │ (None, 512)            │             0 │
├─────────────────────────────────┼────────────────────────┼───────────────┤
│ dense_43 (Dense)                │ (None, 1024)           │       525,312 │
├─────────────────────────────────┼────────────────────────┼───────────────┤
│ dropout_75 (Dropout)            │ (None, 1024)           │             0 │
├─────────────────────────────────┼────────────────────────┼───────────────┤
│ dense_44 (Dense)                │ (None, 512)            │       524,800 │
├─────────────────────────────────┼────────────────────────┼───────────────┤
│ dropout_76 (Dropout)            │ (None, 512)            │             0 │
├─────────────────────────────────┼────────────────────────┼───────────────┤
│ dense_45 (Dense)                │ (None, 256)            │       131,328 │
├─────────────────────────────────┼────────────────────────┼───────────────┤
│ dropout_77 (Dropout)            │ (None, 256)            │             0 │
├─────────────────────────────────┼────────────────────────┼───────────────┤
│ dense_46 (Dense)                │ (None, 128)            │        32,896 │
├─────────────────────────────────┼────────────────────────┼───────────────┤
│ dropout_78 (Dropout)            │ (None, 128)            │             0 │
├─────────────────────────────────┼────────────────────────┼───────────────┤
│ dense_47 (Dense)                │ (None, 1)              │           129 │
└─────────────────────────────────┴────────────────────────┴───────────────┘


Optimal threshold: 0.5059 (default=0.5)
  At this threshold: TPR=0.9362, FPR=0.1684

Results:
  AUC-ROC: 0.9001
  Accuracy (default threshold=0.5): 0.8730 (87.30%)
  Accuracy (optimal threshold=0.5059): 0.8836 (88.36%)

With optimal threshold:
              precision    recall  f1-score   support

  Non-Planet     0.9294    0.8316    0.8778        95
…
